…
    (conv1): Conv2d(128, 128, kernel_size=(3, 3), stride=(1, 1), padding=(1, 1), groups=128)
    (conv2): Conv2d(128, 256, kernel_size=(1, 1), stride=(1, 1))
  )
  (layer10_BN): BatchNorm2d(256, eps=1e-05, momentum=0.1, affine=True, track_running_stats=True)
  (layer10_AC): ReLU()
  (GAP): AdaptiveAvgPool2d(output_size=(1, 1))
  (L2_norm): L2_nrom()
  (L1_norm): L2_nrom()
  (fc1): Linear(in_features=768, out_features=2, bias=True)
)
----------------------------------------------------------------
        Layer (type)               Output Shape         Param #
================================================================
       BatchNorm2d-1         [-1, 30, 256, 256]              60
              ReLU-2         [-1, 30, 256, 256]               0
       BatchNorm2d-3         [-1, 30, 256, 256]              60
              ReLU-4         [-1, 30, 256, 256]               0
            Conv2d-5         [-1, 30, 256, 256]             900
       BatchNorm2d-6         [-1, 30, 256, 256]              60
              ReLU-7         [-1, 30, 256, 256]               0
            Conv2d-8         [-1, 30, 256, 256]           8,100
       _DenseLayer-9         [-1, 30, 256, 256]               0
      BatchNorm2d-10         [-1, 30, 256, 256]              60
             ReLU-11         [-1, 30, 256, 256]               0
           Conv2d-12         [-1, 30, 256, 256]             900
      BatchNorm2d-13         [-1, 30, 256, 256]              60
             ReLU-14         [-1, 30, 256, 256]               0
           Conv2d-15         [-1, 30, 256, 256]           8,100
      _DenseLayer-16         [-1, 30, 256, 256]               0
      BatchNorm2d-17         [-1, 30, 256, 256]              60
             ReLU-18         [-1, 30, 256, 256]               0
           Conv2d-19         [-1, 30, 256, 256]             900
      BatchNorm2d-20         [-1, 30, 256, 256]              60
             ReLU-21         [-1, 30, 256, 256]               0
           Conv2d-22         [-1, 30, 256, 256]           8,100
      _DenseLayer-23         [-1, 30, 256, 256]               0
      BatchNorm2d-24         [-1, 30, 256, 256]              60
             ReLU-25         [-1, 30, 256, 256]               0
           Conv2d-26         [-1, 30, 256, 256]             900
      BatchNorm2d-27         [-1, 30, 256, 256]              60
             ReLU-28         [-1, 30, 256, 256]               0
           Conv2d-29         [-1, 30, 256, 256]           8,100
      _DenseLayer-30         [-1, 30, 256, 256]               0
      BatchNorm2d-31         [-1, 30, 256, 256]              60
             ReLU-32         [-1, 30, 256, 256]               0
           Conv2d-33         [-1, 30, 256, 256]             900
      BatchNorm2d-34         [-1, 30, 256, 256]              60
             ReLU-35         [-1, 30, 256, 256]               0
           Conv2d-36         [-1, 30, 256, 256]           8,100
      _DenseLayer-37         [-1, 30, 256, 256]               0
      BatchNorm2d-38         [-1, 30, 256, 256]              60
             ReLU-39         [-1, 30, 256, 256]               0
           Conv2d-40         [-1, 30, 256, 256]             900
      BatchNorm2d-41         [-1, 30, 256, 256]              60
             ReLU-42         [-1, 30, 256, 256]               0
           Conv2d-43         [-1, 30, 256, 256]           8,100
      _DenseLayer-44         [-1, 30, 256, 256]               0
  _DenseBlock_Add-45         [-1, 30, 256, 256]               0
      BatchNorm2d-46         [-1, 30, 256, 256]              60
             ReLU-47         [-1, 30, 256, 256]               0
           Conv2d-48         [-1, 32, 256, 256]             960
        AvgPool2d-49         [-1, 32, 128, 128]               0
   DenseNet_Add_1-50         [-1, 32, 128, 128]               0
           Conv2d-51         [-1, 32, 128, 128]           9,248
      BatchNorm2d-52         [-1, 32, 128, 128]              64
             ReLU-53         [-1, 32, 128, 128]               0
           Conv2d-54         [-1, 64, 128, 128]          18,496
      BatchNorm2d-55         [-1, 64, 128, 128]             128
             ReLU-56         [-1, 64, 128, 128]               0
        AvgPool2d-57           [-1, 64, 64, 64]               0
           Conv2d-58           [-1, 64, 64, 64]          36,928
      BatchNorm2d-59           [-1, 64, 64, 64]             128
             ReLU-60           [-1, 64, 64, 64]               0
           Conv2d-61          [-1, 128, 64, 64]          73,856
      BatchNorm2d-62          [-1, 128, 64, 64]             256
             ReLU-63          [-1, 128, 64, 64]               0
        AvgPool2d-64          [-1, 128, 32, 32]               0
           Conv2d-65          [-1, 128, 32, 32]         147,584
      BatchNorm2d-66          [-1, 128, 32, 32]             256
             ReLU-67          [-1, 128, 32, 32]               0
           Conv2d-68          [-1, 128, 32, 32]           1,280
           Conv2d-69          [-1, 256, 32, 32]          33,024
          Sepconv-70          [-1, 256, 32, 32]               0
      BatchNorm2d-71          [-1, 256, 32, 32]             512
             ReLU-72          [-1, 256, 32, 32]               0
AdaptiveAvgPool2d-73            [-1, 256, 1, 1]               0
          L2_nrom-74            [-1, 256, 1, 1]               0
          L2_nrom-75            [-1, 256, 1, 1]               0
           Linear-76                    [-1, 2]           1,538
================================================================
Total params: 379,098
Trainable params: 379,098
Non-trainable params: 0
----------------------------------------------------------------
Input size (MB): 0.25
Forward/backward pass size (MB): 798.01
Params size (MB): 1.45
Estimated Total Size (MB): 799.70
----------------------------------------------------------------
None
Created directory for saving checkpoints: checkpoints-wow0.2
…
